jacob/Predict Ridership/model.pth (torch, 237531 bytes, 19 tensors)

model.0.weight f4 [256, 57]
0	0x3ca72755	0.020404497
1	0x3dad0b62	0.08449437
2	0x3d3f4818	0.046699613
3	0xbe9e9237	-0.30970928
4	0xbd706fd0	-0.058700383
5	0x3d9507ca	0.07276876
6	0x3d642984	0.055703655
7	0x3cfd7202	0.030938152
8	0xbe2524c7	-0.1612731
9	0x3de0519c	0.10953066
10	0x3c640d47	0.013919181
11	0xbe340ae7	-0.17582284
12	0x3d3c9e14	0.046049193
13	0x3dad47b8	0.08460945
14	0x3e7ccfa6	0.24688587
15	0xbd91a9ca	-0.07112463
16	0x3e3e747e	0.18599126
17	0x3e2e96f5	0.17049773
18	0x3c3d09b6	0.01153796
19	0xbd6d6c7b	-0.057964783
20	0x3d2689d7	0.040658798
21	0x3c9cac79	0.01912521
22	0x3e4b09a8	0.19827902
23	0x3e347cd1	0.17625739
24	0xbc86603d	-0.016403312
25	0xbdc242e4	-0.094854146
26	0x3ee29906	0.44257373
27	0xbd4ef30a	-0.05052475
28	0xbd99924e	-0.074986085
29	0xbdafa771	-0.08576859
30	0x3b843e8e	0.0040357774
31	0x3e50cff3	0.20391826
32	0x3c50d345	0.012745683
33	0x3d0446d6	0.032294117
34	0x3dcde3bc	0.100532025
35	0xbe1aa7b0	-0.1510303
36	0xbd271eaf	-0.040800747
37	0xbe153b88	-0.1457349
38	0x3e5c5894	0.21518165
39	0x3d4e16cc	0.05031471
40	0xbc5e3084	-0.013561372
41	0xbde1d649	-0.110272
42	0x3db18da7	0.08669596
43	0x3d2e1035	0.042495925
44	0x3d7ed800	0.062217712
45	0x3d153522	0.036427625
46	0x3d9ba0fe	0.07599066
47	0x3d87adae	0.06624924
48	0xbd6272f6	-0.055285417
49	0xbe2da6b4	-0.16958123
50	0xbddb1d6d	-0.10698972
51	0xbe0f71a2	-0.14008191
52	0x3cd22ae4	0.025655217
53	0x3dfe347b	0.124123536
54	0x3d91da41	0.07121707
55	0x3f08d90e	0.534562
56	0xbe4e6fbe	-0.20159814
57	0x3db095ae	0.08622299
58	0x3da8397a	0.08214088
59	0x3d9e4e44	0.07729772
60	0xbd58fb20	-0.052973866
61	0x3d111609	0.035421405
62	0x3dc5f605	0.09666065
63	0xbe8f187a	-0.27948362
64	0xbe78c085	-0.2429219
65	0xbdbc3f65	-0.09191779
66	0xbecb6772	-0.3972736
67	0x3e772c4b	0.2413799
68	0xbe48880f	-0.19583152
69	0x3ded45c2	0.11585571
70	0xbdd1b8af	-0.10240304
71	0x3d3565bc	0.044286475
72	0x3cc63316	0.024194282
73	0xbddd880a	-0.10816963
74	0x3d2a686d	0.041603494
75	0x3d701c1a	0.05862055
76	0x3d5acfb1	0.053420726
77	0x3a78b1ba	0.00094869325
78	0xbba2b0ac	-0.0049649086
79	0xbb104cb6	-0.002201838
80	0x3dccbc81	0.09996892
81	0x3d905796	0.07047956
82	0xbd1830f2	-0.037156053
83	0x3ea75f07	0.32689688
84	0x3d0a487a	0.033760525
85	0xbca386d8	-0.01996176
86	0xbd83e485	-0.06440071
87	0xbca97c1a	-0.020689059
88	0xbd88d7f2	-0.06681813
89	0x3d00ec59	0.0314754
90	0x3d5ccb5b	0.053904872
91	0xbce76f89	-0.028251426
92	0xbe07060c	-0.131859
93	0x3df9b28e	0.1219226
94	0xbe04b850	-0.12960935
95	0x3dcab9c0	0.0989871
96	0x3b22de60	0.0024851784
97	0xbdf26a4d	-0.118366815
98	0x3cbeaa75	0.02327464
99	0xbcd99c56	-0.026563805
100	0xbcf8eade	-0.03038543
101	0xbca6bdb2	-0.020354126
102	0x3de86e87	0.113492064
103	0xbe828ac4	-0.25496495
104	0xbd69401b	-0.0569459
105	0xbc49ef49	-0.012325116
106	0x3e167c46	0.14695844
107	0x3dffe44f	0.12494718
108	0x3d9b9c4f	0.07598173
109	0xbdcdd8a3	-0.10051086
110	0x3abb5623	0.0014292639
111	0x3eb35b6d	0.3503069
112	0xbef62bef	-0.48080394
113	0xbe3a7e9a	-0.18212357
114	0x3d1cfd4e	0.038327508
115	0x3d86a5d0	0.06574595
116	0x3dd54302	0.10413171
117	0xbcadc90e	-0.021214034
118	0x3d499621	0.04921544
119	0xbd017bda	-0.031612255
120	0xbb457439	-0.0030129089
121	0x3b75426d	0.0037423626
122	0xbe2b6448	-0.16737473
123	0x3e495ec9	0.19665064
124	0x3dc3dd22	0.09563662
125	0x3ef212b8	0.47279906
126	0xbd941d38	-0.072321355
127	0xbd7a7968	-0.06115094
128	0x3d1539a4	0.036431924
129	0xbe2f3b18	-0.17112386
130	0x3ce0687c	0.027393572
131	0x3d080b8e	0.033214144
132	0xbbb96f18	-0.0056589954
133	0x3cfe4616	0.031039279
134	0x3d5426ca	0.051794805
135	0xbdc2ff0d	-0.09521303
136	0x3d4d79e4	0.050165072
137	0x3c819562	0.015818302
138	0xbe4d86c1	-0.20070936
139	0xbe366987	-0.17813693
140	0xbe58efdc	-0.21185249
141	0x3e80c37b	0.2514914
142	0xbc1922fd	-0.009346721
143	0x3e030c7b	0.1279773
144	0xbde7ff49	-0.11327989
145	0xbe5b07b3	-0.21389656
146	0xbdf4161f	-0.11918282
147	0xbdcc18f6	-0.099656984
148	0x3e1a4551	0.15065505
149	0xbd39f344	-0.04539801
150	0x3e519d14	0.20470077
151	0x3dcefc67	0.10106736
152	0xbd20152b	-0.039082687
153	0xbd361949	-0.044457708
154	0xbe05d645	-0.13070019
155	0x3dbb7821	0.09153772
156	0xbe30c991	-0.17264391
157	0xbe7b1a21	-0.24521686
158	0x3e9b7a9a	0.30366975
159	0xbb96a809	-0.004597668
160	0x3e770feb	0.24127166
161	0xbd056b27	-0.03257289
162	0x3c102a51	0.0087991515
163	0x3d42f6a2	0.04759849
164	0x3cb6e4f6	0.022325974
165	0xbe06918e	-0.13141462
166	0x3e9b3d44	0.3032018
167	0xbaebee07	-0.0018000015
168	0x3e79db24	0.24400002
169	0x3e218fba	0.15777484
170	0x3d0f0db3	0.034925174
171	0x3e823256	0.25429028
172	0x3d6cb850	0.05779296
173	0xbd66eefe	-0.056380264
174	0x3d81136d	0.06302533
175	0x3dcbeec5	0.09957651
176	0xbdf65e63	-0.120297216
177	0x3dd94467	0.1060875
178	0xbb1facdb	-0.0024364504
179	0x3c80e28f	0.015733032
180	0x3d991e99	0.07476539
181	0xbdcc2c34	-0.099693686
182	0x3d508968	0.05091229
183	0x3db5ff18	0.08886546
184	0x3dca7a66	0.09886627
185	0xbe890f01	-0.2676926
186	0xbdb657d1	-0.089034684
187	0xbcdf3cc3	-0.027250653
188	0x3ddca97d	0.10774515
189	0xbd5d7ebe	-0.05407595
190	0xbda1868d	-0.07886992
191	0xba203b28	-0.00061123306
192	0xbb96cbca	-0.0046019303
193	0xbd268d1a	-0.04066191
194	0x3cf0aefa	0.02938031
195	0x3d083af6	0.033259355
196	0xbc89e5b9	-0.016833173
197	0x3e73588f	0.23764251
198	0xbe14efea	-0.14544645
199	0xbeadcd65	-0.33945766
200	0xbe36266d	-0.17788096
201	0x3d21e9f7	0.039529767
202	0x3df2d7fc	0.11857602
203	0x3cdbb48a	0.026819486
204	0xbd78971e	-0.06069099
205	0xbcf9c626	-0.030489992
206	0x3d189310	0.037249625
207	0x3dd89ca2	0.1057675
208	0x3dc4ad2c	0.096033424
209	0xbe13e9b6	-0.14444622
210	0x3e126f83	0.14300351
211	0x3c7a3388	0.015271075
212	0xbce42869	-0.0278513
213	0x3ca24ec3	0.019812947
214	0x3d8147be	0.06312512
215	0xbdd882e8	-0.105718434
216	0xbe08d4e6	-0.13362464
217	0xbdf84fa4	-0.12124565
218	0x3e00d943	0.12582879
219	0x3d465ae4	0.048426524
220	0xbdc52808	-0.09626776
221	0x3d7d982f	0.06191271
222	0x3e5a1a7a	0.21299163
223	0xbecd7a1f	-0.40132234
224	0xbd8e969c	-0.0696232
225	0x3ed0badc	0.40767562
226	0x3c743cdf	0.014907091
227	0xbdba5557	-0.090983085
228	0xbdb49b1b	-0.088186465
229	0x3d0a5cdc	0.033779964
230	0xbdedc6f0	-0.1161021
231	0xbdf9c247	-0.121952586
232	0xbe51e369	-0.20496906
233	0xbb5ac39b	-0.003338075
234	0xbc89a68d	-0.01680305
235	0xbdc8ef01	-0.098112114
236	0x3c98bfc4	0.018646128
237	0xbe8faeda	-0.2806309
238	0x3da02589	0.07819659
239	0x3d87b88a	0.06626995
240	0xbda96dce	-0.08272897
241	0x3d25f860	0.040520072
242	0xbe75f97c	-0.24020952
243	0xbd0efdeb	-0.034910124
244	0x3dab6bc5	0.08370165
245	0xbe019031	-0.12652661
246	0xbd573cc9	-0.052548204
247	0xbc2982c3	-0.010346117
248	0xbc89215a	-0.016739536
249	0x3da019a0	0.078173876
250	0xbe2db25d	-0.16962571
251	0xbda7fbf6	-0.082023546
252	0x3d811efb	0.06304737
253	0x3e0bc902	0.13650897
254	0x3f03d0b2	0.5149032
255	0xbbeb9ae0	-0.0071900934

model.0.bias f4 [256]
0	0xbe8eb665	-0.2787353
1	0xbf0dc5b9	-0.55379826
2	0xbeb0c36b	-0.34524092
3	0xbeffb591	-0.49943212
4	0xbd4c7707	-0.0499182
5	0xbe8fdc56	-0.2809779
6	0xbe7766ae	-0.24160263
7	0xbe9905b7	-0.29887173
8	0xbdb09eff	-0.08624076
9	0xbeacaede	-0.33727163
10	0xbe17ed7f	-0.14836691
11	0xbe6db7f0	-0.23214698
12	0xbe8e9af6	-0.278526
13	0xbe96da9c	-0.2946366
14	0xbec09693	-0.3761488
15	0xbe66c22c	-0.22535008
16	0xbf48107f	-0.7815017
17	0xbd4cb5a4	-0.049977913
18	0xbee1d548	-0.44108033
19	0xbe8d58c4	-0.27606785
20	0xbf0aefd9	-0.5427223
21	0xbec068d3	-0.37579975
22	0xbefd9737	-0.4952943
23	0xbf1b60c1	-0.6069451
24	0xbeafdac1	-0.34346583
25	0xbecb11d1	-0.3966203
26	0xbd8b5c47	-0.0680471
27	0xbe66ab99	-0.22526397
28	0xbee50731	-0.4473205
29	0xbe7b8e13	-0.24565916
30	0xbf21cef0	-0.63206387
31	0xbf456c1c	-0.77118087
32	0xbeefb2be	-0.46816057
33	0xbeb91be4	-0.3615409
34	0xbf03e5f3	-0.5152275
35	0xbebbba39	-0.36665514
36	0xbefbdcc5	-0.4919187
37	0xbde287fa	-0.11061092
38	0x3ba50995	0.0050365427
39	0xbede92e1	-0.43471435
40	0xbea3d44c	-0.31997907
41	0xbefc2f59	-0.49254873
42	0xbf0369ee	-0.5133351
43	0xbf1fe66a	-0.6246096
44	0xbee447b3	-0.44585952
45	0xbf130d42	-0.57442105
46	0xbda7d882	-0.081955925
47	0xbeeb76b4	-0.45989
48	0xbeb0a366	-0.34499663
49	0xbf2683a2	-0.65044606
50	0xbf1565ef	-0.58358663
51	0xbe0f7bc6	-0.1401206
52	0xbe02a5c9	-0.12758555
53	0xbe6ea960	-0.23306799
54	0xbefe30fa	-0.4964674
55	0xbf144029	-0.579104
56	0xbd93a871	-0.07209862
57	0xbb12a9d1	-0.002237905
58	0xbec7e6c5	-0.3904325
59	0xbe9c83e3	-0.30569372
60	0xbef2c9b4	-0.47419512
61	0xbe936bae	-0.2879309
62	0xbee4b42a	-0.44668704
63	0xbe86b8cf	-0.26312873
64	0xbed16cea	-0.40903407
65	0x3b094e92	0.0020951373
66	0xbefb817c	-0.49122226
67	0xbe9c339f	-0.30508134
68	0xbf0ca736	-0.54942644
69	0xbef19c33	-0.47189483
70	0xbc9cc3fa	-0.019136418
71	0xbf079a74	-0.5297005
72	0xbe980c78	-0.29697013
73	0xbd956bc9	-0.07295949
74	0xbf32edd3	-0.6989414
75	0xbd903797	-0.07041853
76	0xbea4c21b	-0.3217934
77	0xbe951797	-0.2911956
78	0xbdca27ab	-0.09870847
79	0xbe80ea9f	-0.25179002
80	0xbea25a99	-0.31709746
81	0xbe69f01c	-0.228455
82	0x3c64d969	0.01396785
83	0xbf091c78	-0.53559065
84	0xbe8d39aa	-0.27583057
85	0xbed2cc85	-0.4117166
86	0xbeb35f58	-0.3503368
87	0xbe84f04c	-0.25964582
88	0x3b9f74ae	0.004866204
89	0xbe8dcf01	-0.27696994
90	0xbedc0b7f	-0.4297752
91	0xbd3f54f4	-0.046711877
92	0xbed593fa	-0.4171446
93	0xbf00e1d9	-0.50344616
94	0xbeee19a3	-0.46503934
95	0xbe8c41f4	-0.27394068
96	0xbe982ecd	-0.29723206
97	0xbead2605	-0.3381807
98	0xbeb6ccaf	-0.35703036
99	0xbe9e4649	-0.30912998
100	0xbefcb767	-0.49358675
101	0xbedd9683	-0.43278894
102	0xbee9e3de	-0.4568166
103	0xbe73afc3	-0.23797517
104	0xbf06cad6	-0.52653253
105	0xbe6f2efa	-0.23357764
106	0xbea660ac	-0.3249563
107	0xbe907907	-0.28217337
108	0xbe9708ee	-0.29499
109	0xbed8faac	-0.42378747
110	0xbf027bee	-0.5097035
111	0xbdd4da1d	-0.10393164
112	0xbeed3c73	-0.46335182
113	0xbd440aff	-0.04786205
114	0xbe26fae4	-0.16306645
115	0xbe646580	-0.22304344
116	0xbe6f6379	-0.2337779
117	0xbe1eedca	-0.15520397
118	0xbe9f1d79	-0.31077173
119	0xbf053f1b	-0.52049416
120	0xbeb76fca	-0.35827476
121	0xbeafbfe1	-0.3432608
122	0xbee7361f	-0.4515848
123	0xbf034b91	-0.5128718
124	0xbe6f377a	-0.23361006
125	0xbeab583f	-0.33465764
126	0xbec5e970	-0.3865466
127	0xbf2f651f	-0.68513674
128	0xbe872fc8	-0.26403642
129	0xbee5e8e0	-0.44904232
130	0xbed6dd5a	-0.41965753
131	0xbf1f52d8	-0.62235785
132	0xbdb31ea9	-0.08746082
133	0xbe7288b6	-0.23684964
134	0xbeb3dd37	-0.3512971
135	0xbf3ed841	-0.7454873
136	0xbead0a74	-0.33797038
137	0xbf046c88	-0.51728106
138	0xbdfa36ad	-0.1221746
139	0xbea8fd15	-0.33005586
140	0xbe26e7eb	-0.16299407
141	0xbea7d2fc	-0.32778156
142	0xbe96effd	-0.29479972
143	0xbd50daa0	-0.050989747
144	0xbebfb60a	-0.37443572
145	0x3e23241b	0.15931742
146	0xbeaa33b8	-0.33242583
147	0xbf08b2d0	-0.53397846
148	0xbe73a04f	-0.23791622
149	0xbedbb7c0	-0.42913628
150	0xbedeaf60	-0.43493176
151	0xbf0fd5fe	-0.561859
152	0xbe540339	-0.20704354
153	0xbe7a1db9	-0.24425401
154	0xbefe8293	-0.49708995
155	0xbdb25010	-0.08706677
156	0xbed6d661	-0.41960433
157	0xbf01fd1a	-0.5077683
158	0xbea13f56	-0.31493634
159	0xbe9b8af2	-0.30379444
160	0xbe8ffae5	-0.28121105
161	0xbebafe41	-0.36522105
162	0xbeafff01	-0.3437424
163	0xbe34638a	-0.17616096
164	0xbe8d23f4	-0.27566493
165	0xbe67e89b	-0.22647326
166	0xbec8b56a	-0.39200908
167	0xbeb88317	-0.36037514
168	0xbed2a9c5	-0.4114515
169	0xbe54311a	-0.20721856
170	0xbef4b67a	-0.4779547
171	0xbef7c0a3	-0.48389158
172	0xbebeb2f7	-0.37245914
173	0xbe9b317f	-0.303112
174	0xbe31f874	-0.17379934
175	0xbf051a8f	-0.5199365
176	0xbe694af7	-0.22782503
177	0xbe5e8bdf	-0.21733044
178	0xbe39c9f1	-0.18143441
179	0xbf106a8b	-0.5641257
180	0xbe93f849	-0.28900364
181	0xbe3f2169	-0.18665089
182	0xbec80eeb	-0.39073882
183	0xbe2658c3	-0.16244797
184	0xbf0e044e	-0.5547532
185	0xbf2724c7	-0.6529049
186	0xbda88878	-0.08229154
187	0xbe9a53ad	-0.30141965
188	0xbf0063e3	-0.50152415
189	0xbef072b0	-0.469625
190	0xbec90a6e	-0.3926577
191	0xbdef12a3	-0.116734765
192	0xbf1a09b5	-0.6017106
193	0xbf07dd09	-0.5307165
194	0xbe88035e	-0.2656507
195	0xbf168d7f	-0.58809656
196	0xbf1e4f3c	-0.6183965
197	0xbf08931a	-0.5334946
198	0xbf2e18f0	-0.680068
199	0xbecc1834	-0.39862216
200	0xbe841099	-0.25793913
201	0xbed45937	-0.41474316
202	0xbe76800b	-0.24072282
203	0xbef84540	-0.48490334
204	0xbe2d9392	-0.16950825
205	0xbf31c73e	-0.69444644
206	0xbe49fe07	-0.1972581
207	0xbf0d81a2	-0.5527593
208	0xbcb25fef	-0.02177426
209	0xbf2d4bc8	-0.6769376
210	0xbeb3884a	-0.35064918
211	0xbf247131	-0.64235216
212	0xbe1c5fd0	-0.15270925
213	0xbebd4988	-0.36970162
214	0xbea4e159	-0.32203177
215	0xbf0b83b7	-0.54497856
216	0xbee11dbd	-0.43968
217	0xbe71f552	-0.23628739
218	0xbebacb24	-0.3648311
219	0xbd615d92	-0.055020876
220	0xbe8e8664	-0.27836907
221	0xbee18a0b	-0.4405063
222	0xbf23241b	-0.6372697
223	0xbead1856	-0.3380763
224	0xbee9d722	-0.45671946
225	0xbe8c0e9d	-0.273549
226	0xbe37da89	-0.17954458
227	0xbefebbb5	-0.49752584
228	0xbeb5ee0d	-0.3553318
229	0xbe5edf76	-0.21764931
230	0xbe3a67c6	-0.18203649
231	0xbe4ef325	-0.2020994
232	0xbebd18ce	-0.36932987
233	0xbea2b40f	-0.31778
234	0xbeacc231	-0.33741906
235	0xbf02e9ff	-0.511383
236	0xbed2bb78	-0.41158652
237	0xbe79a56c	-0.2437951
238	0xbe985088	-0.2974894
239	0xbdfbab48	-0.12288529
240	0xbe98420a	-0.29737884
241	0xbe7f0a81	-0.2490635
242	0xbeecc4b2	-0.46243817
243	0x3c87188e	0.0164912
244	0xbeaf6ff4	-0.342651
245	0xbe555c99	-0.20836104
246	0xbefd0761	-0.49419692
247	0xbe6bd14a	-0.23029056
248	0xbeb9032e	-0.36135238
249	0xbe8a2ac1	-0.26985744
250	0xbec90b8c	-0.39266622
251	0xbe7098b7	-0.23495756
252	0xbe67c9bb	-0.22635548
253	0xbe543487	-0.20723163
254	0xbeb236bc	-0.34807384
255	0x3d603a12	0.05474288

model.2.weight f4 [256]
0	0x3f88d3ec	1.0689673
1	0x3f9c721c	1.2222323
2	0x3f9b5f92	1.2138541
3	0x3f7536c4	0.9578669
4	0x3f79f638	0.97641325
5	0x3f05cb1c	0.52263045
6	0x3efcab2d	0.49349347
7	0x3f9dcf1c	1.232883
8	0x3f6987d5	0.9122289
9	0x3f3fba65	0.7489379
10	0x3f7304b7	0.9492907
11	0x3f454a2d	0.7706631
12	0x3f84b3d2	1.0367377
13	0x3f4be5bf	0.7964744
14	0x3f6b2589	0.9185415
15	0x3f5ad5de	0.85482585
16	0x3f3f6ab3	0.74772185
17	0x3f54949e	0.8303927
18	0x3fa403da	1.2813675
19	0x3f6acedf	0.9172191
20	0x3f347a8f	0.7049951
21	0x3f92cf9d	1.1469609
22	0x3f7eda17	0.9955153
23	0x3f8cb8e1	1.099392
24	0x3f85d037	1.0454167
25	0x3f553c7c	0.83295417
26	0x3f9745e0	1.1818199
27	0x3f4c9cb8	0.79926634
28	0x3f8d0098	1.1015806
29	0x3f043536	0.51643693
30	0x3f56691f	0.8375415
31	0x3f8e466f	1.1115245
32	0x3f840c86	1.0316322
33	0x3f80db9c	1.006702
34	0x3f4c9316	0.79911935
35	0x3f713511	0.942216
36	0x3f697149	0.91188484
37	0x3f402a12	0.75064194
38	0x3f11d6da	0.5696846
39	0x3f8efb73	1.1170486
40	0x3f83f28c	1.0308394
41	0x3f99062f	1.1955012
42	0x3f815fe2	1.0107386
43	0x3f684132	0.9072448
44	0x3f696337	0.91167015
45	0x3f4d8f1d	0.802965
46	0x3f845723	1.0339092
47	0x3f26abd7	0.65105957
48	0x3f2cbc5f	0.6747493
49	0x3f834518	1.0255461
50	0x3f8243d4	1.017695
51	0x3f5639cd	0.83681947
52	0x3f074b81	0.52849585
53	0x3f829208	1.0200815
54	0x3f74349f	0.95392793
55	0x3f536c29	0.82586914
56	0x3f5659bb	0.8373067
57	0x3f471b0a	0.77775633
58	0x3f880740	1.0627213
59	0x3f520eef	0.82054037
60	0x3f8b6e01	1.0892946
61	0x3f423f4a	0.7587782
62	0x3f541464	0.82843614
63	0x3f615ea9	0.88035065
64	0x3f92230c	1.1416945
65	0x3f81b7b5	1.0134188
66	0x3f77c395	0.9678281
67	0x3f4e3fdf	0.8056621
68	0x3f8b0aba	1.0862648
69	0x3f5a99d0	0.8539095
70	0x3f431c59	0.7621513
71	0x3f5b0ecb	0.8556945
72	0x3f85fda3	1.0468029
73	0x3f6ecc2c	0.9328029
74	0x3f912301	1.1338807
75	0x3f68f520	0.9099903
76	0x3f15eaba	0.5856129
77	0x3f491842	0.7855264
78	0x3f825fb5	1.0185457
79	0x3f379197	0.7170653
80	0x3f7cbdb0	0.9872694
81	0x3f7f2710	0.9966898
82	0x3f6df054	0.92944837
83	0x3f78027c	0.9687879
84	0x3f87982c	1.0593314
85	0x3f8fb182	1.1226046
86	0x3f0c5559	0.5481773
87	0x3f2bb0bd	0.67066556
88	0x3f56f38d	0.8396538
89	0x3efe2b63	0.49642476
90	0x3f704bc8	0.93865633
91	0x3f7e9c91	0.9945765
92	0x3f670594	0.90242887
93	0x3f81bc83	1.0135654
94	0x3f378d2b	0.7169978
95	0x3f954081	1.166031
96	0x3f9919fb	1.1961054
97	0x3f8bacc4	1.0912099
98	0x3f8a719c	1.0815921
99	0x3f74e4c4	0.9566157
100	0x3f4011f2	0.7502738
101	0x3f9c468f	1.2209033
102	0x3f7b6116	0.98195016
103	0x3f329505	0.69758636
104	0x3f26d890	0.651742
105	0x3f808194	1.0039544
106	0x3f585d3e	0.84517276
107	0x3f2fd837	0.6868929
108	0x3f527644	0.8221171
109	0x3f354540	0.7080879
110	0x3f823afe	1.0174253
111	0x3f8718d3	1.0554451
112	0x3f93d13f	1.1548232
113	0x3f8c9e06	1.0985725
114	0x3f45262f	0.7701139
115	0x3f421c10	0.7582407
116	0x3f63eccd	0.89033204
117	0x3f975994	1.1824212
118	0x3ebb77a9	0.3661473
119	0x3f75db38	0.96037626
120	0x3f573c40	0.8407631
121	0x3f945d4e	1.1590974
122	0x3f6f3dde	0.93453777
123	0x3f8515d6	1.0397289
124	0x3f9cceae	1.2250574
125	0x3f998cae	1.1996057
126	0x3f8773e1	1.0582238
127	0x3f90e8ca	1.1321042
128	0x3f7d1d02	0.9887239
129	0x3f8af068	1.0854616
130	0x3f46e3c5	0.776913
131	0x3fa7f45d	1.3121449
132	0x3f2c33a5	0.67266303
133	0x3f87973b	1.0593027
134	0x3f76c669	0.963965
135	0x3f610256	0.8789419
136	0x3fc8acbe	1.5677717
137	0x3f820c66	1.0160034
138	0x3f72f966	0.949118
139	0x3f88347f	1.064102
140	0x3f6bce96	0.921121
141	0x3f81c8c6	1.0139396
142	0x3f8d5a88	1.1043253
143	0x3f404304	0.7510226
144	0x3f880d6f	1.06291
145	0x3f7955c6	0.97396505
146	0x3f897c5e	1.0741079
147	0x3f84c19f	1.0371588
148	0x3f68af4c	0.9089248
149	0x3f490432	0.78522027
150	0x3f88083e	1.0627515
151	0x3f7fb4be	0.99885166
152	0x3f3865fe	0.7203063
153	0x3f74f7c7	0.9569058
154	0x3f89aedd	1.0756489
155	0x3f5d8db1	0.8654433
156	0x3f8ddf1a	1.108371
157	0x3f6ac7f6	0.91711366
158	0x3f2f83af	0.6856031
159	0x3f6b9f32	0.9203979
160	0x3f5e8ceb	0.86933774
161	0x3f6e6051	0.9311572
162	0x3f7f4dc5	0.9972804
163	0x3f91ffd7	1.1406201
164	0x3f72811e	0.9472827
165	0x3f395dd1	0.7240878
166	0x3f8241cb	1.0176328
167	0x3f7c25be	0.9849509
168	0x3f463600	0.7742615
169	0x3f3a753c	0.72835135
170	0x3f8c8538	1.0978155
171	0x3f95cb06	1.1702583
172	0x3f840a49	1.0315639
173	0x3f503700	0.81333923
174	0x3f3b07d7	0.7305884
175	0x3f96b6d7	1.1774548
176	0x3f722efd	0.9460295
177	0x3f8e7a34	1.1131043
178	0x3f4c32ce	0.7976502
179	0x3f77bd3f	0.9677314
180	0x3f77fe6a	0.9687258
181	0x3f65c6ff	0.8975677
182	0x3f9ae87e	1.2102201
183	0x3f8a7e8d	1.081987
184	0x3f69f950	0.91396046
185	0x3f7a059a	0.976648
186	0x3f43cf5d	0.76488286
187	0x3f8427da	1.0324662
188	0x3f8fb8bb	1.122825
189	0x3f26042e	0.6485013
190	0x3f543c0e	0.82904136
191	0x3f5a047a	0.8516308
192	0x3fb4783f	1.4099196
193	0x3f5eaf4e	0.86986244
194	0x3f8538a6	1.0407913
195	0x3f9b7618	1.2145414
196	0x3f9d4d66	1.2289245
197	0x3f93341a	1.1500275
198	0x3f8c194c	1.094522
199	0x3f89dfa0	1.077137
200	0x3f455497	0.770822
201	0x3f7194fa	0.94367945
202	0x3f9d22e9	1.2276279
203	0x3f7d5508	0.9895787
204	0x3f77e405	0.96832305
205	0x3f65296d	0.89516336
206	0x3f72a3ab	0.9478099
207	0x3f5fc84f	0.8741502
208	0x3f8ab962	1.0837824
209	0x3f8b57bb	1.0886148
210	0x3f447c33	0.7675201
211	0x3f93d6f0	1.1549969
212	0x3f23419c	0.63771987
213	0x3f74cdd6	0.9562658
214	0x3f4a5466	0.7903503
215	0x3f98a042	1.1923907
216	0x3f94853c	1.160316
217	0x3f60c7cd	0.8780487
218	0x3f5a1d1f	0.85200685
219	0x3f37b57c	0.717613
220	0x3f90a0b6	1.1299045
221	0x3f78b88a	0.97156584
222	0x3f919947	1.1374902
223	0x3f78f518	0.97248983
224	0x3f9ac550	1.2091465
225	0x3f9a69a3	1.2063488
226	0x3f615a77	0.88028663
227	0x3f778481	0.9668656
228	0x3f4a8599	0.79110104
229	0x3fa0f686	1.2575233
230	0x3f4202a9	0.7578531
231	0x3f852ba0	1.0403938
232	0x3f7f3011	0.9968272
233	0x3eb50eb7	0.3536279
234	0x3f71bf64	0.94432664
235	0x3f90f4c7	1.13247
236	0x3f88794a	1.0662014
237	0x3f8c4cb2	1.0960906
238	0x3f5091a4	0.8147223
239	0x3f8b5d55	1.0887858
240	0x3f85c90f	1.0451983
241	0x3f953cad	1.1659142
242	0x3f6c46ec	0.9229572
243	0x3f3629cb	0.7115752
244	0x3f6e1ff2	0.93017495
245	0x3f836c3d	1.0267407
246	0x3f923e72	1.1425307
247	0x3f6803b6	0.9063066
248	0x3f752e0e	0.957734
249	0x3f2d55ff	0.67709345
250	0x3f79ce06	0.9757999
251	0x3f17cd1e	0.5929736
252	0x3f87ef8b	1.0619978
253	0x3f97a8da	1.1848404
254	0x3f6414b9	0.8909412
255	0x3f562261	0.8364621

model.2.bias f4 [256]
0	0x3b740cb5	0.003723902
1	0x3ed07e9d	0.40721598
2	0x3e811db8	0.25217986
3	0xbe2a0dfa	-0.16606894
4	0x3c35d7c5	0.011098807
5	0xbe96d48e	-0.2945904
6	0x3f242ec6	0.6413387
7	0x3e9b121b	0.3028725
8	0x3e9f5ef6	0.31127137
9	0xbea818ba	-0.32831365
10	0x3de65b99	0.112479396
11	0xbdfe811c	-0.124269694
12	0x3e51242f	0.20423959
13	0xbe52a600	-0.20571136
14	0x3d2f688f	0.042824324
15	0xbdff3d22	-0.12462832
16	0x3e4f3523	0.20235114
17	0x3dcbafe5	0.099456586
18	0x3e8f7f72	0.2802692
19	0x3ebb5e3c	0.36595333
20	0x3e014a7f	0.12626074
21	0x3e835365	0.25649562
22	0x3e83784e	0.25677723
23	0x3da2b4b7	0.07944625
24	0x3eb397f0	0.35076857
25	0xbdef4fb3	-0.11685123
26	0xbcc30c95	-0.02380971
27	0x3ca7cce4	0.020483442
28	0x3d67d0d0	0.056595623
29	0x3b419090	0.002953563
30	0xbe1856c9	-0.14876856
31	0xbd40d668	-0.047079474
32	0xbd793e96	-0.060850702
33	0x3e34dd13	0.17662458
34	0x3e8d4d69	0.27598122
35	0x3e7a909d	0.24469228
36	0x3e508821	0.20364429
37	0x3e9c1377	0.304836
38	0xbca328f5	-0.01991699
39	0x3e4eaed8	0.20183885
40	0x3e7e1869	0.24813999
41	0x3e9ab7ef	0.30218455
42	0xbe4a2ede	-0.19744441
43	0x3d9263b3	0.07147922
44	0xbd6ce673	-0.05783696
45	0x3e848d45	0.2588903
46	0x3dd5de93	0.10442843
47	0xbe061626	-0.13094386
48	0x3e4b3ac7	0.1984664
49	0xbec20c5b	-0.3790005
50	0x3eb308fc	0.34967792
51	0xbe1a7297	-0.15082775
52	0xbe49f4d6	-0.19722304
53	0x3e213a3d	0.15744872
54	0x3e6378de	0.22214076
55	0x3d97c2f7	0.074102335
56	0x3d3a5868	0.045494467
57	0x3e3292c2	0.17438796
58	0x3e8c1a57	0.27363846
59	0xbe311d3e	-0.17296311
60	0x3ead4e2a	0.33848697
61	0x3efeb04d	0.49743882
62	0x3ea57fb2	0.32323986
63	0x3d60c7fd	0.054878224
64	0x3e19226a	0.14954534
65	0x3e14cb93	0.14530782
66	0xbe21946d	-0.15779276
67	0x3edcb3e5	0.43106
68	0x3e407bb3	0.18797188
69	0xbdbf9d27	-0.09356146
70	0x3eafb0a1	0.34314445
71	0xbdc9a679	-0.09846205
72	0x3e951349	0.29116276
73	0x3e2484fd	0.16066356
74	0xbb84828c	-0.0040438827
75	0xbd4cc69b	-0.049994092
76	0x3e972514	0.29520476
77	0x3e1d893d	0.15384383
78	0x3e408678	0.18801296
79	0xbe9605b5	-0.2930123
80	0x3ebf5f9b	0.3737763
81	0x3e700c1f	0.23442124
82	0x3dfa24e7	0.1221407
83	0xbd60eae3	-0.054911505
84	0x3e945da4	0.28977692
85	0x3ebbfef2	0.36717945
86	0xbe0091f6	-0.1255568
87	0xbe146630	-0.14492106
88	0x3ee574ce	0.44815677
89	0xbe920c23	-0.28524885
90	0x3e8b38bb	0.2719172
91	0x3e889983	0.2667962
92	0x3e3ff4b0	0.18745685
93	0x3ce41f80	0.027847052
94	0xbeb5dae3	-0.3551856
95	0x3ddc742a	0.10764344
96	0x3ea0d766	0.31414336
97	0x3e01b2e1	0.12665893
98	0x3c70ffd1	0.014709429
99	0x3dc8d8f9	0.09807009
100	0xbe9bd4e8	-0.30435872
101	0x3e6f22b2	0.23353079
102	0xbe106d07	-0.1410409
103	0x3e63be2c	0.22240514
104	0x3eb103fe	0.34573358
105	0xbe17acd1	-0.14812018
106	0x3e25695d	0.16153474
107	0x3eb7c104	0.35889447
108	0xbaf62af8	-0.0018781116
109	0xbea04cc7	-0.31308576
110	0x3da31fed	0.07965074
111	0x3dfb6e34	0.12276879
112	0x3e1e918f	0.15485214
113	0x3ec15ac8	0.37764573
114	0x3eb5965b	0.35466275
115	0xbed2ef82	-0.41198355
116	0x3ddfdc74	0.1093072
117	0x3ea554dc	0.32291305
118	0x3c1e3a5d	0.00965747
119	0x3e58c808	0.21170056
120	0xbdbee5e2	-0.093211904
121	0x3e6c91d8	0.2310251
122	0xbd8ecfd1	-0.069732316
123	0x3de424a5	0.11139802
124	0x3ea16280	0.31520462
125	0x3e0ec5db	0.13942663
126	0x3e849d32	0.2590118
127	0xbe6f3405	-0.23359688
128	0x3e6d164d	0.23153038
129	0xbdc615f0	-0.09672153
130	0x3cc8d7ff	0.024517057
131	0x3ea137a7	0.31487772
132	0x3f21dc54	0.6322682
133	0x3de6fede	0.11279081
134	0x3ec43fd6	0.38329953
135	0xbe212883	-0.1573811
136	0x3e89cd23	0.2691432
137	0x3eaadc2a	0.33371097
138	0x3d4f1d74	0.050565198
139	0x3ece7226	0.40321463
140	0x3ddf54da	0.10904856
141	0xbd0ccaa6	-0.034372948
142	0x3e898b25	0.2686397
143	0x3e194459	0.14967479
144	0x3e6a5ccb	0.2288696
145	0x3e35bf19	0.17748679
146	0x3e8f7f74	0.28026927
147	0xbe22c66f	-0.15896009
148	0xbd83132b	-0.064001404
149	0xbee194de	-0.4405889
150	0x3e3ec0c9	0.18628229
151	0x3c520103	0.012817624
152	0xbe09ce1c	-0.1345753
153	0x3e08b30e	0.13349554
154	0x3cd09e1d	0.02546602
155	0x3e195fa2	0.14977887
156	0x3e941e10	0.28929186
157	0x3e447737	0.19186102
158	0xbd99c84e	-0.07508908
159	0x3c291a64	0.010321233
160	0x3ea94645	0.33061424
161	0x3ed0a4d9	0.4075077
162	0xbd445782	-0.047935016
163	0x3db18d2f	0.08669507
164	0xbe41303e	-0.18866059
165	0xbd7bcf7d	-0.061477173
166	0x3cb372e7	0.021905376
167	0x3d4eb6e3	0.050467383
168	0xbd3a2936	-0.045449458
169	0xbc464a36	-0.012102654
170	0x3ecc9d44	0.39963734
171	0x3eab73c1	0.3348675
172	0xbdc5067c	-0.096203774
173	0x3e025434	0.12727433
174	0x3c60abaa	0.013712803
175	0x3ea5064f	0.32231376
176	0x3e60dafc	0.21958536
177	0x3f04a9aa	0.51821387
178	0x3e1902c5	0.14942463
179	0x3e5442a7	0.20728551
180	0x3eae52f1	0.34047654
181	0x3e596539	0.2123002
182	0x3e9b67e9	0.30352715
183	0x3e0f4afd	0.1399345
184	0xbdc17c6d	-0.094475605
185	0xbe002972	-0.1251581
186	0x3e7ca68b	0.24672906
187	0x3dd494c4	0.10379937
188	0x3e6fb882	0.23410228
189	0x3e8c731c	0.2743157
190	0x3d6148b9	0.055000994
191	0x3cb50d95	0.022101203
192	0x3ee23b18	0.4418571
193	0xbd5fb7f0	-0.054618776
194	0x3e36620d	0.17810841
195	0x3e050048	0.12988389
196	0xbca23a06	-0.019803058
197	0x3eabf0ab	0.33582053
198	0xbe7c63b3	-0.24647407
199	0x3e42e6b8	0.19033325
200	0xbcc52434	-0.024065115
201	0x3ec7ca26	0.39021415
202	0x3ef05196	0.46937245
203	0xbe16d72c	-0.14730519
204	0x3db7a484	0.08966926
205	0x3ec4707a	0.38367063
206	0xbd9645bb	-0.07337519
207	0xbce149e6	-0.027501058
208	0x3f0156a6	0.5052284
209	0xbec6ba24	-0.3881389
210	0xbd89de4e	-0.067318544
211	0x3e875994	0.2643553
212	0x3eb542d0	0.35402536
213	0x3ebedbb4	0.37276995
214	0x3ef8194f	0.4845681
215	0x3f130ae7	0.5743851
216	0x3d40af21	0.047042016
217	0xbe353b8d	-0.17698498
218	0x3ea56dbf	0.32310292
219	0xbe8ab51b	-0.27091298
220	0x3e03a18c	0.12854594
221	0x3eafc4cc	0.34329832
222	0x3d3e285a	0.0464252
223	0x3d128a61	0.0357765
224	0x3e99ac7e	0.30014414
225	0x3e976dc8	0.29575944
226	0xbe4ce860	-0.20010519
227	0xbe803e02	-0.25047308
228	0x3ef963a1	0.48708823
229	0x3ea0f79b	0.31438908
230	0x3e453aca	0.19260707
231	0x3e980e36	0.29698342
232	0x3ebb3da0	0.36570454
233	0xbe4c261a	-0.1993641
234	0x3e1cfc0a	0.1533052
235	0x3e763cc7	0.24046622
236	0x3e2012da	0.15632191
237	0x3df10589	0.11768634
238	0x3e6f76b4	0.23385125
239	0xbc056f46	-0.008144205
240	0x3ebb9e09	0.3664401
241	0x3e82c8dd	0.25543872
242	0x3e5b9490	0.21443391
243	0x3e9690cf	0.29407355
244	0xbe906749	-0.282038
245	0x3e4394d6	0.19099745
246	0xbb83a018	-0.0040168874
247	0x3e2331b5	0.1593693
248	0x3e050b98	0.12992704
249	0x3da2c589	0.07947833
250	0xbd0ccf9d	-0.034377683
251	0x3eff1ef6	0.4982831
252	0x3e195d27	0.14976941
253	0x3e92e7ad	0.2869238
254	0xbe254649	-0.16140093
255	0x3ed18e45	0.40928856

model.2.running_mean f4 [256]
0	0x3e8b9454	0.27261603
1	0x3e22e9da	0.1590952
2	0x3e21bf00	0.15795517
3	0x3dd7befc	0.10534474
4	0x3ea83fef	0.32861277
5	0x3ec75d43	0.3893834
6	0x3f509136	0.81471574
7	0x3e2042d9	0.156505
8	0x3ee2fcce	0.443335
9	0x3e5b0d29	0.21391739
10	0x3eb6a2b8	0.3567102
11	0x3e523acb	0.2053024
12	0x3e555979	0.20834912
13	0x3ec20c91	0.37900212
14	0x3e743a70	0.23850417
15	0x3e8142b0	0.2524619
16	0x3e290861	0.16507103
17	0x3e7d7d9c	0.24754947
18	0x3deeafe9	0.11654646
19	0x3e601b88	0.21885502
20	0x3e90e905	0.2830278
21	0x3e1c4d35	0.15263827
22	0x3ddb5390	0.10709298
23	0x3e489c9d	0.19590993
24	0x3e53abd8	0.20671022
25	0x3e953bb0	0.291471
26	0x3e456e0b	0.1928026
27	0x3e48fefa	0.19628516
28	0x3e29f38e	0.16596815
29	0x3ec32e24	0.3812114
30	0x3d849784	0.06474212
31	0x3dc746e9	0.09730322
32	0x3d9f6fa2	0.07784964
33	0x3e54c472	0.20778063
34	0x3e862526	0.26200217
35	0x3e6af5ec	0.22945374
36	0x3df0b13d	0.117525555
37	0x3f2ee5f1	0.6831961
38	0x3ec40048	0.38281465
39	0x3e3c7fd0	0.18408132
40	0x3e8dde9f	0.2770891
41	0x3e4e3358	0.20136774
42	0x3e23c8f3	0.15994625
43	0x3e04a6f8	0.12954319
44	0x3e13cfc8	0.14434731
45	0x3da69918	0.08134669
46	0x3e84b06b	0.25915846
47	0x3ec2aea4	0.38023865
48	0x3e819f3e	0.25316805
49	0x3df5ac56	0.11995761
50	0x3de27304	0.11057094
51	0x3e597ea8	0.21239722
52	0x3e73a9ac	0.23795193
53	0x3e82385e	0.2543363
54	0x3da8be17	0.08239382
55	0x3d84c5e3	0.064830564
56	0x3e97b174	0.29627573
57	0x3ee9df48	0.45678163
58	0x3e427e9f	0.18993615
59	0x3e66fcac	0.22557324
60	0x3e00e35e	0.12586734
61	0x3e687990	0.22702622
62	0x3e748820	0.23880053
63	0x3e6fe8f4	0.23428708
64	0x3e5726dc	0.21010917
65	0x3eab2088	0.33423257
66	0x3e168f16	0.1470302
67	0x3e80a81d	0.2512826
68	0x3e1ab732	0.15108946
69	0x3df7fcb3	0.121087454
70	0x3e9956d3	0.29949054
71	0x3e04366c	0.12911385
72	0x3e218675	0.15773948
73	0x3e6a089e	0.2285485
74	0x3e2b28e1	0.16714813
75	0x3e9fe77f	0.31231305
76	0x3e3ba985	0.18326385
77	0x3e89f70c	0.26946294
78	0x3e732281	0.23743631
79	0x3eaacbbc	0.33358562
80	0x3e44560f	0.19173454
81	0x3dfeb9ef	0.12437808
82	0x3e49cc4e	0.19706842
83	0x3de6c1a7	0.11267405
84	0x3e6bd8c2	0.23031905
85	0x3e6723fc	0.2257232
86	0x3e265dce	0.16246721
87	0x3f22c2b2	0.6357833
88	0x3e8c6872	0.27423435
89	0x3eccdad9	0.40010718
90	0x3e8111f2	0.25209004
91	0x3eb07110	0.3446126
92	0x3df5c41e	0.12000297
93	0x3e4ac48c	0.19801539
94	0x3e024c4f	0.12724422
95	0x3e257940	0.16159534
96	0x3e0f5e52	0.14000824
97	0x3e67cb4c	0.22636145
98	0x3de23b37	0.110464506
99	0x3eb10449	0.34573582
100	0x3d149056	0.036270462
101	0x3e59035a	0.21192685
102	0x3e66aa3e	0.2252588
103	0x3e4b3afe	0.19846722
104	0x3e6cdff1	0.23132302
105	0x3e4accd3	0.19804697
106	0x3e5fb1f3	0.21845226
107	0x3eabb9ba	0.33540136
108	0x3ee8ffc4	0.45507634
109	0x3f5277fd	0.8221434
110	0x3e1a496c	0.1506707
111	0x3d9607cc	0.07325706
112	0x3e2f1da3	0.1710115
113	0x3e91e955	0.2849833
114	0x3e9ffe01	0.31248477
115	0x3e2aee5a	0.16692486
116	0x3dd42bb8	0.10359901
117	0x3ed501c8	0.4160292
118	0x3e284a59	0.16434611
119	0x3db46e51	0.08810104
120	0x3de1c0a0	0.110230684
121	0x3dc9057d	0.098155
122	0x3d98631a	0.07440777
123	0x3e3e4fd0	0.18585134
124	0x3e7a3b96	0.24436793
125	0x3d86178b	0.06547459
126	0x3e61cd30	0.22050929
127	0x3dbd3d80	0.09240246
128	0x3e1efc22	0.15525869
129	0x3da922eb	0.08258613
130	0x3df1c33f	0.11804818
131	0x3e2119db	0.1573252
132	0x3e96d293	0.2945753
133	0x3e862722	0.2620173
134	0x3e61b2a8	0.22040808
135	0x3c39011e	0.01129177
136	0x3e219985	0.1578122
137	0x3e5e86fa	0.21731177
138	0x3e5790f1	0.21051385
139	0x3e32713f	0.17426012
140	0x3ea44d46	0.32090205
141	0x3e5add07	0.21373378
142	0x3e36febf	0.17870615
143	0x3f7a7874	0.97840047
144	0x3e53e5c3	0.20693116
145	0x3ece6abd	0.4031581
146	0x3e165f02	0.1468468
147	0x3dd74616	0.10511415
148	0x3e1ff441	0.15620519
149	0x3e880b01	0.26570895
150	0x3e2c3801	0.16818239
151	0x3df43612	0.119243756
152	0x3f1c06c5	0.6094783
153	0x3e400f1c	0.18755764
154	0x3e386c08	0.1800996
155	0x3eb234f9	0.3480604
156	0x3d83ce26	0.06435804
157	0x3e53deac	0.20690411
158	0x3de43abb	0.111440144
159	0x3e0b2ea2	0.13592008
160	0x3e157d7f	0.14598654
161	0x3da0094e	0.07814275
162	0x3df5dff7	0.120056085
163	0x3e9d8c56	0.3077113
164	0x3eccc0a8	0.39990735
165	0x3e16aa53	0.14713411
166	0x3dca741b	0.098854266
167	0x3e24856e	0.16066524
168	0x3e317968	0.17331469
169	0x3f92531c	1.1431613
170	0x3e48fe6c	0.19628304
171	0x3da9ef31	0.08297575
172	0x3d50f19d	0.05101167
173	0x3ef8b324	0.48574173
174	0x3f055154	0.5207722
175	0x3df6f55c	0.12058517
176	0x3e77a093	0.24182348
177	0x3e4b74e3	0.19868807
178	0x3ed0b904	0.40766156
179	0x3e523fb0	0.20532107
180	0x3dcc9586	0.09989457
181	0x3e94b47f	0.29043958
182	0x3db34fdb	0.087554656
183	0x3e0e3e7e	0.13891026
184	0x3e572274	0.21009237
185	0x3db8eb8a	0.090293005
186	0x3e9bcc6c	0.304294
187	0x3dd3627b	0.10321518
188	0x3e56bd4a	0.20970646
189	0x3e902550	0.28153467
190	0x3e25f8e2	0.16208223
191	0x3e5cddfc	0.21569055
192	0x3e63365a	0.22188702
193	0x3e6b45ec	0.22975892
194	0x3e67ffa5	0.22656114
195	0x3dacfaab	0.084462486
196	0x3dfab9ac	0.12242445
197	0x3dca5aeb	0.098806225
198	0x3dac8dab	0.084254585
199	0x3e245a90	0.16050172
200	0x3e8e261d	0.27763453
201	0x3e0a0794	0.13479453
202	0x3e2b1d13	0.1671031
203	0x3e198815	0.14993317
204	0x3e3efac8	0.18650353
205	0x3e0b8518	0.1362499
206	0x3e949de8	0.29026723
207	0x3e05e9c9	0.13077463
208	0x3ebf1227	0.37318537
209	0x3e021260	0.12702322
210	0x3e305ba6	0.17222461
211	0x3e479f9e	0.19494483
212	0x3ed257d6	0.41082639
213	0x3e2c6584	0.168356
214	0x3e449422	0.19197133
215	0x3dde1340	0.108435154
216	0x3e0a434f	0.13502239
217	0x3e56d4f1	0.20979668
218	0x3dd3660a	0.10322197
219	0x3e6deb8d	0.23234387
220	0x3e36dbac	0.17857236
221	0x3df0bf20	0.11755204
222	0x3df53628	0.1197322
223	0x3d5707f2	0.05249781
224	0x3dee37cc	0.11631736
225	0x3e2d80ec	0.16943711
226	0x3e8f8421	0.28030494
227	0x3dbb9e16	0.09161012
228	0x3e94b507	0.29044363
229	0x3dac9dc4	0.08428529
230	0x3df6352d	0.12021861
231	0x3e90f7d8	0.2831409
232	0x3e2ae6db	0.16689627
233	0x3e88cf01	0.2672043
234	0x3da0a5b5	0.07844106
235	0x3d9909c7	0.07472568
236	0x3d227195	0.0396591
237	0x3e6af964	0.22946697
238	0x3e82bfe7	0.25537035
239	0x3e8e10fe	0.2774734
240	0x3e328d28	0.1743666
241	0x3ea34713	0.31890163
242	0x3d84f2d5	0.06491629
243	0x3f2e1903	0.68006915
244	0x3dfe45fe	0.12415694
245	0x3dbc91b0	0.09207475
246	0x3da21d4a	0.07915743
247	0x3e3fcf4e	0.18731424
248	0x3e540fb0	0.2070911
249	0x3df28ebc	0.11843631
250	0x3e73cdc9	0.2380897
251	0x3ebb6c9b	0.36606297
252	0x3ed2a118	0.4113853
253	0x3e0cb223	0.13739829
254	0x3e310f7e	0.17291066
255	0x3eb1a1e9	0.3469384

model.2.running_var f4 [256]
0	0x3e5caae3	0.21549563
1	0x3ddbd038	0.10733074
2	0x3dc686bf	0.096936695
3	0x3d28568d	0.041098166
4	0x3e45ec1a	0.19328347
5	0x3ed70d4a	0.42002326
6	0x3ff3aea7	1.9037675
7	0x3da8812c	0.082277626
8	0x3ed3bb64	0.41353905
9	0x3e01c23b	0.1267175
10	0x3ea106c5	0.31450477
11	0x3e2a1a2d	0.16611548
12	0x3e3e0ebf	0.18560313
13	0x3e8227c4	0.25420964
14	0x3e2aea2b	0.1669089
15	0x3e4700e0	0.19433928
16	0x3e2fae42	0.17156318
17	0x3e099390	0.13435197
18	0x3d92097d	0.07130716
19	0x3e16d50e	0.14729711
20	0x3ea2471e	0.31694883
21	0x3d8e4b7b	0.069479905
22	0x3d69c7c3	0.057075273
23	0x3dd6e1cf	0.10492288
24	0x3e285df8	0.16442096
25	0x3e827bcc	0.25485075
26	0x3d898de1	0.067165144
27	0x3e125f71	0.1429422
28	0x3e0185fb	0.12648766
29	0x3ed74ddc	0.4205159
30	0x3ceff998	0.02929382
31	0x3d31481f	0.04328167
32	0x3cd577e6	0.026058149
33	0x3e215051	0.15753295
34	0x3e8b6578	0.27225852
35	0x3e4aca2d	0.19803686
36	0x3d7c9421	0.061664704
37	0x3ee742ac	0.45168054
38	0x3e684abc	0.22684759
39	0x3e4efe61	0.20214225
40	0x3e509a61	0.20371391
41	0x3e25b3d0	0.16181874
42	0x3d6fab2d	0.058512855
43	0x3dc71e72	0.09722604
44	0x3da0e992	0.0785705
45	0x3d281583	0.04103614
46	0x3dba7c2e	0.09105717
47	0x3f0234cc	0.5086181
48	0x3e71b504	0.23604208
49	0x3d1fb8fc	0.038994774
50	0x3d8b8eae	0.06814323
51	0x3dcaef8c	0.09908971
52	0x3e0bd7e9	0.13656582
53	0x3def5baa	0.116874054
54	0x3cf3f97c	0.02978205
55	0x3cf57733	0.029964065
56	0x3e2cdbcf	0.16880725
57	0x3e966028	0.29370236
58	0x3df69a4e	0.1204115
59	0x3e1771ef	0.14789556
60	0x3d8a07fd	0.06739805
61	0x3e140a46	0.14457044
62	0x3e46c98d	0.19412823
63	0x3e2ea9d6	0.17056975
64	0x3e30ea90	0.17276978
65	0x3e5826bd	0.21108527
66	0x3d80ea99	0.06294746
67	0x3e260c55	0.16215642
68	0x3dfb4feb	0.122711025
69	0x3d9b0635	0.07569543
70	0x3e2b3924	0.16721016
71	0x3dad7569	0.0846966
72	0x3d892fd9	0.06698579
73	0x3e20150e	0.15633032
74	0x3e1339b9	0.14377488
75	0x3e80b246	0.25136012
76	0x3dffadda	0.124843314
77	0x3e8723be	0.26394457
78	0x3dec2371	0.115301974
79	0x3e87b54c	0.26505506
80	0x3e69b035	0.22821124
81	0x3d2e1b89	0.04250673
82	0x3d9b4528	0.0758155
83	0x3d8b4ad0	0.06801379
84	0x3e48efb5	0.19622691
85	0x3e28582b	0.16439883
86	0x3dfeb07c	0.124360055
87	0x3ecd6a71	0.4012027
88	0x3e31ca84	0.1736241
89	0x3ee8e644	0.4548818
90	0x3e6321bd	0.22180839
91	0x3e6cf432	0.23140028
92	0x3d8fbace	0.07018052
93	0x3e34cadb	0.17655508
94	0x3d94f2c9	0.0727287
95	0x3dbd0d31	0.09231032
96	0x3d814e86	0.06313805
97	0x3e332ee3	0.17498355
98	0x3d492952	0.04911167
99	0x3e72eca0	0.23723078
100	0x3c271540	0.0101979375
101	0x3df8a760	0.12141299
102	0x3dee3835	0.116318144
103	0x3e130dfe	0.14360806
104	0x3e4d431b	0.2004513
105	0x3e036c1f	0.12834214
106	0x3e27339a	0.16328278
107	0x3eaabcd6	0.33347195
108	0x3ea545b6	0.32279748
109	0x3f157fad	0.5839794
110	0x3db74172	0.089480296
111	0x3c65e939	0.014032655
112	0x3dce2acc	0.100667566
113	0x3e472231	0.19446637
114	0x3e8a0839	0.26959398
115	0x3dbaacef	0.09115016
116	0x3cf64f95	0.030067245
117	0x3edaa02b	0.42700323
118	0x3dacbf3c	0.084349126
119	0x3d030666	0.031988524
120	0x3d043f21	0.032286767
121	0x3d33457c	0.043767437
122	0x3d1fcfce	0.039016537
123	0x3e169faa	0.14709345
124	0x3e2f672e	0.17129204
125	0x3cc4f4a7	0.02404244
126	0x3e32a8f4	0.17447263
127	0x3d02a374	0.031894162
128	0x3da512e1	0.080602415
129	0x3cf75369	0.03019114
130	0x3d4c3d89	0.049863372
131	0x3df3dbf5	0.11907188
132	0x3e886317	0.266381
133	0x3e46af1c	0.19402736
134	0x3e2d5e56	0.16930518
135	0x3b9b593f	0.0047408636
136	0x3de6acd4	0.11263433
137	0x3e274cc0	0.16337872
138	0x3dbd2198	0.09234923
139	0x3de1cc70	0.110253215
140	0x3e7b9b5d	0.24570985
141	0x3e1a254d	0.15053292
142	0x3e0150fd	0.12628551
143	0x3f52a668	0.82285166
144	0x3e2078cf	0.15671085
145	0x3e9868e0	0.29767513
146	0x3db7cca5	0.0897458
147	0x3d119d0d	0.035550166
148	0x3db548a2	0.08851744
149	0x3e29a98f	0.16568588
150	0x3e21dd8f	0.15807174
151	0x3d5fa928	0.05460468
152	0x3ef03085	0.46912017
153	0x3e12f5db	0.14351599
154	0x3dedf131	0.11618269
155	0x3eab70ba	0.3348444
156	0x3cc6d68c	0.024272226
157	0x3e24cfb0	0.16094851
158	0x3d151106	0.036393188
159	0x3d7eee09	0.062238727
160	0x3dc31978	0.09526342
161	0x3ce054c6	0.027384173
162	0x3d16db8d	0.036830474
163	0x3e77414a	0.24146
164	0x3e807825	0.25091663
165	0x3e063ef9	0.1310996
166	0x3d03f394	0.032214716
167	0x3da49eac	0.08038077
168	0x3df91a3a	0.121632054
169	0x3fa1900e	1.2622087
170	0x3e424d91	0.18974902
171	0x3d55f924	0.052239552
172	0x3c397ec9	0.011321732
173	0x3e90e9a9	0.2830327
174	0x3f0a6ece	0.54075325
175	0x3da02857	0.07820194
176	0x3e157d5c	0.14598602
177	0x3e1a0242	0.15039924
178	0x3e8ad6e8	0.27117085
179	0x3dbcce87	0.092190795
180	0x3cef3fb8	0.029205188
181	0x3e5193e7	0.20466577
182	0x3d29f7f0	0.041496217
183	0x3d378633	0.044805717
184	0x3dbb96a5	0.091595925
185	0x3cf840e4	0.03030438
186	0x3e56dde9	0.2098309
187	0x3d232609	0.039831195
188	0x3e2612c8	0.16218102
189	0x3e7d795a	0.24753323
190	0x3dcea5a6	0.10090189
191	0x3dc5f160	0.09665179
192	0x3e59d0ff	0.21271132
193	0x3df20986	0.11818223
194	0x3e17b44f	0.14814876
195	0x3d275028	0.040847927
196	0x3da304df	0.079599135
197	0x3d823f08	0.063596785
198	0x3ccfc280	0.0253613
199	0x3de46c4a	0.11153467
200	0x3dec9801	0.1155243
201	0x3d9c7c56	0.07640903
202	0x3df59689	0.11991603
203	0x3dbf2154	0.09332529
204	0x3d9c2ac7	0.07625347
205	0x3df6767e	0.12034319
206	0x3e3cdf5d	0.18444581
207	0x3d9a40f1	0.07531918
208	0x3ea298a8	0.31757092
209	0x3d33e43f	0.043918844
210	0x3dd180fb	0.10229679
211	0x3e3d9f70	0.18517852
212	0x3eb33afc	0.3500594
213	0x3dc29e06	0.09502797
214	0x3e27097d	0.16312213
215	0x3d99cf96	0.07510297
216	0x3db718f0	0.08940303
217	0x3df9bf14	0.121946484
218	0x3d65d201	0.05610848
219	0x3e1e4d87	0.15459262
220	0x3da033d8	0.078223884
221	0x3d8da892	0.06916918
222	0x3d8ef790	0.069808125
223	0x3c89d4d5	0.016825119
224	0x3d9ca07d	0.07647798
225	0x3db7e3ea	0.08979018
226	0x3e737c2f	0.23777841
227	0x3d2cf60e	0.042226844
228	0x3e82852f	0.25492236
229	0x3c9f8347	0.019471778
230	0x3d38b80e	0.045097403
231	0x3e8a9b2b	0.2707151
232	0x3db7c6e1	0.0897348
233	0x3e25921d	0.16169019
234	0x3cbce49b	0.023058226
235	0x3d0d7dbb	0.034543734
236	0x3c266933	0.010156917
237	0x3e207185	0.15668304
238	0x3e408f86	0.1880475
239	0x3e0cd246	0.13752088
240	0x3dffe953	0.12495675
241	0x3e8b7c0c	0.27243078
242	0x3d05d2bb	0.03267167
243	0x3f0da2e2	0.55326664
244	0x3d19ca4e	0.03754645
245	0x3cc934a1	0.024561228
246	0x3ce7d177	0.028298123
247	0x3de758cb	0.11296233
248	0x3e37e537	0.17958532
249	0x3d5f77aa	0.05455748
250	0x3dee04d2	0.11622013
251	0x3ebe44f3	0.3716198
252	0x3ecac1bf	0.39600942
253	0x3d783414	0.06059654
254	0x3e044812	0.12918118
255	0x3e8c2172	0.27369267

model.4.weight f4 [128, 256]
0	0x3e0934a8	0.13398993
1	0xbaaf92b6	-0.0013395164
2	0x3dde6c11	0.10860456
3	0x3dfccfee	0.12344347
4	0xbe37c8bf	-0.17947672
5	0xbd091e02	-0.033475883
6	0x3d632a44	0.05546023
7	0xbd013f21	-0.031554345
8	0x3dd15a33	0.10222282
9	0xbd43fcf6	-0.047848664
10	0x3c918082	0.017761473
11	0x3d8121a5	0.06305245
12	0xbbe2eb27	-0.006925005
13	0x3d854b58	0.06508511
14	0xbca7153a	-0.020395864
15	0x3d57c60d	0.05267911
16	0x3da3c0f2	0.07995786
17	0xbe8d9c51	-0.27658322
18	0x3db3147c	0.087441415
19	0x3dd41748	0.10356003
20	0xbcb55f87	-0.022140278
21	0xbecedbf8	-0.40402198
22	0x3e0e82d8	0.139171
23	0xbe4abfb8	-0.19799697
24	0x3d8591d2	0.06521954
25	0x3e2e1d55	0.17003377
26	0x3d1d96c9	0.038473878
27	0x3d083753	0.033255886
28	0x3de526d9	0.1118905
29	0xbd4ac0ee	-0.0495004
30	0x3d2dd9f3	0.04244418
31	0xbd768719	-0.060187433
32	0x3d826e68	0.063687146
33	0x3dd2c129	0.102907486
34	0xbd4a5a65	-0.049402613
35	0xbe804f3e	-0.25060457
36	0xbe9d1a00	-0.306839
37	0xbcf21e57	-0.029555483
38	0x3ceb5f38	0.028731927
39	0x3d9faeee	0.07797037
40	0x3e11a2c5	0.14222248
41	0xbe19c3fd	-0.1501617
42	0xbcedba6d	-0.029019559
43	0x3d4becc4	0.049786344
44	0x3d27783d	0.040886153
45	0xbdc8bd30	-0.0980171
46	0x3bfd2e68	0.0077264793
47	0xbacc5a1a	-0.0015590817
48	0x3e5b20d1	0.21399237
49	0x3cbc6058	0.022995159
50	0x3de5f902	0.11229135
51	0xbb9bc98b	-0.0047542504
52	0x3e49f1c6	0.19721135
53	0xbe16635f	-0.14686345
54	0xbe18156d	-0.14851923
55	0xbbbd2188	-0.0057718195
56	0xbe18bf19	-0.14916648
57	0x3da60c75	0.08107845
58	0x3d5408cc	0.0517662
59	0x3ca331f7	0.019921286
60	0xbe122098	-0.14270246
61	0x3e00233f	0.12513445
62	0xbdd4ef60	-0.1039722
63	0xbd9d51f0	-0.07681644
64	0x3ce69d1e	0.028151091
65	0xbd8f711d	-0.070039965
66	0x3e2d99a9	0.16953148
67	0xbc909a2d	-0.017651642
68	0xbd71f85a	-0.059074737
69	0x3da0d4eb	0.07853111
70	0x3d7bdd75	0.061490495
71	0xbd9c3899	-0.07627983
72	0xbd32202d	-0.043487716
73	0x3d5789f1	0.052621786
74	0x3cc554c7	0.024088277
75	0x3e9dc7c9	0.30816486
76	0xbddfaeff	-0.1092205
77	0xbdf169c6	-0.11787753
78	0xbc4f8313	-0.012665528
79	0x3e77ea90	0.24210572
80	0x3e0ed5e3	0.13948779
81	0x3e74e64b	0.23915975
82	0x3c593b35	0.013258745
83	0x3db1cce2	0.086816564
84	0x3deaeff9	0.114715524
85	0xbcb60dad	-0.022223318
86	0xbe1c6a7b	-0.15274994
87	0x3db36956	0.087603256
88	0x3d079da3	0.03310932
89	0x3c26f7c8	0.010190912
90	0xbe070404	-0.13185126
91	0x3e0d2db0	0.1378696
92	0x3cbf401a	0.023345996
93	0x3d92bfbe	0.07165478
94	0x3c76b05f	0.015056699
95	0xbd2ebfd3	-0.042663407
96	0xbe4828e2	-0.19546846
97	0xbc3f0200	-0.011658192
98	0xbe19b42b	-0.15010135
99	0xbe147f0b	-0.14501588
100	0xbcb4b3ad	-0.022058332
101	0x3d15d28d	0.03657775
102	0x3e273caf	0.16331743
103	0x3c9e0ac4	0.019292243
104	0x3c434974	0.011919368
105	0xbcedac94	-0.029012956
106	0xbdcb1514	-0.0991613
107	0xbcf081e8	-0.02935882
108	0xbdf40b1d	-0.11916182
109	0x3d9f74ea	0.077859715
110	0x3dd129ea	0.102130726
111	0x3dc0fab8	0.09422821
112	0x3dbfc528	0.093637764
113	0x3e01ba8e	0.12668821
114	0x3d9a66af	0.075391166
115	0x3d8d704d	0.06906185
116	0xbdb4fe18	-0.08837527
117	0x3d347f49	0.0440667
118	0xbdf1e311	-0.118108876
119	0xbe3a3022	-0.18182424
120	0x3de68a8f	0.11256897
121	0x3d94786a	0.0724953
122	0x3d01c716	0.031684004
123	0x3dedd65f	0.11613154
124	0xbc8d2fb3	-0.017234659
125	0xbc66abf6	-0.014079085
126	0xbd384975	-0.04499193
127	0x3c03b8ee	0.008039696
128	0x3d9881ee	0.07446657
129	0xbd9a5f85	-0.0753775
130	0x3c805ca2	0.01566917
131	0xbd7ef2d5	-0.0622433
132	0x3d796cbb	0.06089471
133	0x3e54fd6d	0.207998
134	0x3e3e1d8a	0.18565956
135	0x3c047d27	0.008086479
136	0xbd1c8981	-0.03821707
137	0x3d8c5244	0.068516284
138	0x3e4169e6	0.18888053
139	0x3c8b30e9	0.016991096
140	0x3e0abc2a	0.13548341
141	0xbc129dcc	-0.0089487545
142	0xbd86e0a1	-0.06585813
143	0x3d42167b	0.04738472
144	0x3e28f47c	0.16499513
145	0x3e1cd0b1	0.15313984
146	0x3e227aae	0.15867111
147	0xbe599fe9	-0.21252407
148	0x3e43a045	0.19104107
149	0xbde73e97	-0.11291235
150	0xbc54e5fa	-0.012994284
151	0xbe9dc5ce	-0.30814976
152	0x3d5495f4	0.05190082
153	0xbd89cd8d	-0.06728659
154	0x3c938c78	0.018011317
155	0x3e3a3431	0.18183972
156	0x3ba2af08	0.004964713
157	0xbdc11558	-0.09427899
158	0x3e571ff4	0.21008283
159	0x3dcce560	0.10004687
160	0x3e423f03	0.1896935
161	0x3d0df6bc	0.034659132
162	0xbde46e44	-0.11153844
163	0x3da4740c	0.08029947
164	0xbd35e71a	-0.04440985
165	0xbd92106d	-0.07132039
166	0xbe3214e2	-0.17390779
167	0xbe3c7766	-0.18404922
168	0xbb08656c	-0.0020812405
169	0x3dbac3e5	0.09119395
170	0xbd1fbdef	-0.038999494
171	0x3dd8a3ca	0.10578115
172	0xbe0ea3e3	-0.13929705
173	0x3c7686ef	0.015046819
174	0xbd324e70	-0.043531835
175	0xbe98aa3e	-0.29817384
176	0xbe77f4a0	-0.24214411
177	0x3de219c7	0.11040073
178	0xbd93450f	-0.07190906
179	0x3d9605fd	0.07325361
180	0x3d1a73da	0.03770814
181	0xbe92ef2b	-0.28698096
182	0x3e46e940	0.19424915
183	0x3d29e9d4	0.04148276
184	0x3cfd84a8	0.030947044
185	0x3e05eb3f	0.1307802
186	0xbe039826	-0.12851009
187	0x3dbd8e1b	0.0925562
188	0x3bbd2e21	0.0057733213
189	0x3b8bd785	0.0042676353
190	0x3e42f478	0.1903857
191	0xbd7bc37e	-0.061465733
192	0x3c87669f	0.016528426
193	0x3c458994	0.012056727
194	0x3e173688	0.14766896
195	0xbcb21917	-0.02174048
196	0xbcb8d18e	-0.022560861
197	0x3d2fac9f	0.042889234
198	0x3d201ed7	0.03909191
199	0xbd122c3c	-0.035686716
200	0xbe57feea	-0.21093336
201	0x3ce4f1ac	0.02794727
202	0xbd1cc2ea	-0.038271822
203	0x3dcbc7b7	0.09950202
204	0xbd925d1a	-0.07146664
205	0xbe391880	-0.18075752
206	0xbd3ffeb2	-0.046873756
207	0x3e109f0c	0.14123172
208	0x3d924804	0.07142642
209	0xbdeb4188	-0.114871085
210	0xba0c57f5	-0.0005353683
211	0x3db2a73c	0.08723304
212	0xbc18e738	-0.009332471
213	0x3c9f4591	0.019442352
214	0xbe300492	-0.17189243
215	0x3e3b7416	0.18306002
216	0x3e77c18e	0.24194929
217	0x3da237d3	0.07920804
218	0xbe2fc8fc	-0.17166513
219	0x3e415976	0.18881783
220	0xbdfa8621	-0.12232614
221	0xbe3d2ecd	-0.18474884
222	0x3dc2b949	0.095079966
223	0xbe3fb498	-0.18721235
224	0xbe0d0b6e	-0.13773891
225	0xbd21fe5f	-0.039549228
226	0xbe9084a5	-0.282262
227	0xbcf44a2e	-0.029820528
228	0x3d868df7	0.065700464
229	0x3dacbfec	0.08435044
230	0x3c3d27a3	0.011545095
231	0xbd04a95d	-0.03238808
232	0xbe38db4a	-0.18052402
233	0xbb2e4d49	-0.0026596359
234	0x3d21e54e	0.039525323
235	0xbd84744a	-0.06467493
236	0xbd870bc8	-0.06594044
237	0x3e2751eb	0.16339843
238	0x3e289d10	0.16466165
239	0xbb7dd73b	-0.0038733024
240	0xbd50384a	-0.05083493
241	0x3ccc9915	0.024975339
242	0xbd192b6f	-0.037394937
243	0x3d6b1958	0.057397217
244	0x3da02e44	0.078213245
245	0x3d982267	0.07428437
246	0x3d329e11	0.043607775
247	0xbc5d3ed8	-0.013503753
248	0x3de910db	0.11380168
249	0x3d84bd0b	0.064813696
250	0xbd721e80	-0.05911112
251	0xbe030de7	-0.12798272
252	0xbe4b4097	-0.19848858
253	0xbd4803a1	-0.048831586
254	0xbd2c0ed2	-0.04200632
255	0x3e1991f6	0.14997086

model.4.bias f4 [128]
0	0xbe4d8cc4	-0.20073229
1	0xbec24187	-0.37940618
2	0xbebd7dcb	-0.37010035
3	0xbe35f23e	-0.1776819
4	0xbea337bd	-0.31878462
5	0xbebb8e52	-0.3663202
6	0xbea8eea7	-0.32994577
7	0xbe9f39e1	-0.31098846
8	0xbf0ca456	-0.54938257
9	0xbecb4093	-0.39697704
10	0xbe0ecf95	-0.13946374
11	0xbe92ee52	-0.2869745
12	0xbecd5187	-0.40101263
13	0xbe631b88	-0.22178471
14	0xbe8dcd27	-0.2769558
15	0xbe7e7680	-0.24849892
16	0xbe3c8695	-0.18410714
17	0xbebbdad0	-0.36690378
18	0xbe84fc3f	-0.25973698
19	0xbee9d989	-0.4567378
20	0xbe9689c9	-0.29401997
21	0xbcab18a2	-0.02088577
22	0xbe7c5e76	-0.24645409
23	0xbec69276	-0.38783616
24	0xbeedb08e	-0.46423763
25	0xbec7167b	-0.3888434
26	0xbec1ef35	-0.37877813
27	0xbd70d32d	-0.058795143
28	0xbd98a385	-0.07453064
29	0xbda95c79	-0.08269591
30	0xbe16bccd	-0.1472046
31	0xbe887fe8	-0.26660085
32	0xbef0e07c	-0.47046268
33	0xbefbb7bd	-0.4916362
34	0xbece20ef	-0.402595
35	0xbeb94573	-0.36185798
36	0xbe9c6858	-0.30548358
37	0xbea70778	-0.32622886
38	0xbe2934e4	-0.16524082
39	0xbeabffea	-0.33593684
40	0xbdc27417	-0.09494799
41	0xbe87f5ee	-0.26554817
42	0xbeb1d878	-0.34735465
43	0xbee31a99	-0.4435623
44	0xbe287686	-0.16451463
45	0xbecd046b	-0.40042433
46	0xbecf56f2	-0.40496022
47	0xbeee3d97	-0.46531364
48	0xbe5ad51d	-0.21370359
49	0xbca2a100	-0.019852161
50	0x3dc8eac8	0.09810406
51	0xbe7aecec	-0.24504441
52	0xbe642b4a	-0.22282138
53	0xbec72a70	-0.38899565
54	0xbe4f79db	-0.20261328
55	0xbe871fb7	-0.26391384
56	0xbeead835	-0.45868078
57	0xbea88568	-0.3291428
58	0xbee270ad	-0.4422659
59	0xbe9ed779	-0.31023768
60	0xbd2903a9	-0.041263256
61	0xbe14de89	-0.14538015
62	0xbe73a494	-0.2379325
63	0x3db2af5c	0.087248534
64	0xbe1e479f	-0.15457009
65	0xbe6cc4a9	-0.23121895
66	0xbe160257	-0.1464933
67	0xbea7ab04	-0.32747662
68	0xbedeef66	-0.43542022
69	0xbf11a3bf	-0.5689048
70	0xbf164984	-0.58705926
71	0xbed5b1da	-0.41737252
72	0xbec227ec	-0.37921083
73	0xbf12e4bc	-0.5738027
74	0xbe63cb44	-0.22245508
75	0xbe247f2f	-0.16064142
76	0xbec1be4b	-0.37840495
77	0xbec51545	-0.3849279
78	0x3e17f441	0.14839269
79	0xbeca46c1	-0.39507106
80	0xbef344fd	-0.4751357
81	0xbe4c3d37	-0.19945227
82	0xbee35385	-0.44399658
83	0x3c891d9a	0.016737748
84	0xbefe0c26	-0.49618644
85	0xbe49474c	-0.19656104
86	0xbf03b753	-0.51451606
87	0xbeb17e3b	-0.3466662
88	0xbe8a32ba	-0.26991826
89	0xbd0d79b1	-0.034539882
90	0xbdbeacd7	-0.0931031
91	0xbe1388ce	-0.14407656
92	0xbe749b11	-0.23887278
93	0xbe96c3c0	-0.2944622
94	0xbe3ee531	-0.18642117
95	0xbe1e8b31	-0.15482785
96	0xbe8a894f	-0.27057883
97	0xbe605dcf	-0.21910785
98	0xbedf0d9f	-0.4356508
99	0xbef9fd00	-0.48825836
100	0xbedd5e9d	-0.43236247
101	0xbda05631	-0.0782894
102	0xbe83ba3d	-0.25728026
103	0xbe25cb8d	-0.1619093
104	0xbe4287cd	-0.18997116
105	0xbe21d31f	-0.15803193
106	0xbee32ba1	-0.44369224
107	0xbf1665b8	-0.5874896
108	0xbdc2aa4d	-0.095051385
109	0xbe3a724e	-0.18207666
110	0xbe77e010	-0.24206567
111	0xbebf8ff2	-0.3741451
112	0xbe90f397	-0.28310844
113	0xbedf5eac	-0.43626916
114	0xbea15b21	-0.31514838
115	0xbe371f6f	-0.17883085
116	0xbe1d2f4a	-0.1535007
117	0xbf276e00	-0.6540222
118	0xbdc1c69d	-0.094617106
119	0xbeca7f8a	-0.3955043
120	0xbea9a006	-0.331299
121	0xbe10f233	-0.14154892
122	0xbeaa4dc7	-0.33262464
123	0xbdca520e	-0.09878932
124	0xbe625b22	-0.22105077
125	0xbdecd314	-0.115636975
126	0xbe163874	-0.14669973
127	0xbe9be77d	-0.3045005
